…
I0315 03:29:16.878778 2780312512 net.cpp:294] The NetState phase (0) differed from the phase (1) specified by a rule in layer accuracy
I0315 03:29:16.878787 2780312512 net.cpp:51] Initializing net from parameters: 
name: "LeNet"
state {
  phase: TRAIN
  level: 0
  stage: ""
}
layer {
  name: "mnist"
  type: "Data"
  top: "data"
  top: "label"
  include {
    phase: TRAIN
  }
  transform_param {
    scale: 0.00390625
  }
  data_param {
    source: "/Users/XP/Documents/Src/HandRecognitionML/data/sample32/train.db"
    batch_size: 64
    backend: LMDB
  }
}
layer {
  name: "conv1"
  type: "Convolution"
  bottom: "data"
  top: "conv1"
  param {
    lr_mult: 1
  }
  param {
    lr_mult: 2
  }
  convolution_param {
    num_output: 20
    kernel_size: 5
    stride: 1
    weight_filler {
      type: "xavier"
    }
    bias_filler {
      type: "constant"
    }
  }
}
layer {
  name: "pool1"
  type: "Pooling"
  bottom: "conv1"
  top: "pool1"
  pooling_param {
    pool: MAX
    kernel_size: 2
    stride: 2
  }
}
layer {
  name: "conv2"
  type: "Convolution"
  bottom: "pool1"
  top: "conv2"
  param {
    lr_mult: 1
  }
  param {
    lr_mult: 2
  }
  convolution_param {
    num_output: 50
    kernel_size: 5
    stride: 1
    weight_filler {
      type: "xavier"
    }
    bias_filler {
      type: "constant"
    }
  }
}
layer {
  name: "pool2"
  type: "Pooling"
  bottom: "conv2"
  top: "pool2"
  pooling_param {
    pool: MAX
    kernel_size: 2
    stride: 2
  }
}
layer {
  name: "ip1"
  type: "InnerProduct"
  bottom: "pool2"
  top: "ip1"
  param {
    lr_mult: 1
  }
  param {
    lr_mult: 2
  }
  inner_product_param {
    num_output: 500
    weight_filler {
      type: "xavier"
    }
    bias_filler {
      type: "constant"
    }
  }
}
layer {
  name: "relu1"
  type: "ReLU"
  bottom: "ip1"
  top: "ip1"
}
layer {
  name: "ip2"
  type: "InnerProduct"
  bottom: "ip1"
  top: "ip2"
  param {
    lr_mult: 1
  }
  param {
    lr_mult: 2
  }
  inner_product_param {
    num_output: 16
    weight_filler {
      type: "xavier"
    }
    bias_filler {
      type: "constant"
    }
  }
}
layer {
  name: "loss"
  type: "SoftmaxWithLoss"
  bottom: "ip2"
  bottom: "label"
  top: "loss"
}
I0315 03:29:16.878929 2780312512 layer_factory.hpp:77] Creating layer mnist
I0315 03:29:16.879201 2780312512 db_lmdb.cpp:35] Opened lmdb /Users/XP/Documents/Src/HandRecognitionML/data/sample32/train.db
I0315 03:29:16.879268 2780312512 net.cpp:84] Creating Layer mnist
I0315 03:29:16.879281 2780312512 net.cpp:380] mnist -> data
I0315 03:29:16.879302 2780312512 net.cpp:380] mnist -> label
I0315 03:29:16.879343 2780312512 data_layer.cpp:45] output data size: 64,1,32,32
I0315 03:29:16.886035 2780312512 net.cpp:122] Setting up mnist
I0315 03:29:16.886051 2780312512 net.cpp:129] Top shape: 64 1 32 32 (65536)
I0315 03:29:16.886061 2780312512 net.cpp:129] Top shape: 64 (64)
I0315 03:29:16.886068 2780312512 net.cpp:137] Memory required for data: 262400
I0315 03:29:16.886080 2780312512 layer_factory.hpp:77] Creating layer conv1
I0315 03:29:16.886097 2780312512 net.cpp:84] Creating Layer conv1
I0315 03:29:16.886106 2780312512 net.cpp:406] conv1 <- data
I0315 03:29:16.886116 2780312512 net.cpp:380] conv1 -> conv1
I0315 03:29:17.638170 2780312512 net.cpp:122] Setting up conv1
I0315 03:29:17.638200 2780312512 net.cpp:129] Top shape: 64 20 28 28 (1003520)
I0315 03:29:17.638268 2780312512 net.cpp:137] Memory required for data: 4276480
I0315 03:29:17.638290 2780312512 layer_factory.hpp:77] Creating layer pool1
I0315 03:29:17.638306 2780312512 net.cpp:84] Creating Layer pool1
I0315 03:29:17.638314 2780312512 net.cpp:406] pool1 <- conv1
I0315 03:29:17.638324 2780312512 net.cpp:380] pool1 -> pool1
I0315 03:29:17.638345 2780312512 net.cpp:122] Setting up pool1
I0315 03:29:17.638352 2780312512 net.cpp:129] Top shape: 64 20 14 14 (250880)
I0315 03:29:17.638362 2780312512 net.cpp:137] Memory required for data: 5280000
I0315 03:29:17.638368 2780312512 layer_factory.hpp:77] Creating layer conv2
I0315 03:29:17.638381 2780312512 net.cpp:84] Creating Layer conv2
I0315 03:29:17.638389 2780312512 net.cpp:406] conv2 <- pool1
I0315 03:29:17.638398 2780312512 net.cpp:380] conv2 -> conv2
I0315 03:29:17.639430 2780312512 net.cpp:122] Setting up conv2
I0315 03:29:17.639444 2780312512 net.cpp:129] Top shape: 64 50 10 10 (320000)
I0315 03:29:17.639453 2780312512 net.cpp:137] Memory required for data: 6560000
I0315 03:29:17.639464 2780312512 layer_factory.hpp:77] Creating layer pool2
I0315 03:29:17.639474 2780312512 net.cpp:84] Creating Layer pool2
I0315 03:29:17.639482 2780312512 net.cpp:406] pool2 <- conv2
I0315 03:29:17.639489 2780312512 net.cpp:380] pool2 -> pool2
I0315 03:29:17.639502 2780312512 net.cpp:122] Setting up pool2
I0315 03:29:17.639509 2780312512 net.cpp:129] Top shape: 64 50 5 5 (80000)
I0315 03:29:17.639518 2780312512 net.cpp:137] Memory required for data: 6880000
I0315 03:29:17.639523 2780312512 layer_factory.hpp:77] Creating layer ip1
I0315 03:29:17.639536 2780312512 net.cpp:84] Creating Layer ip1
I0315 03:29:17.639544 2780312512 net.cpp:406] ip1 <- pool2
I0315 03:29:17.639552 2780312512 net.cpp:380] ip1 -> ip1
I0315 03:29:17.646946 2780312512 net.cpp:122] Setting up ip1
I0315 03:29:17.646968 2780312512 net.cpp:129] Top shape: 64 500 (32000)
I0315 03:29:17.646977 2780312512 net.cpp:137] Memory required for data: 7008000
I0315 03:29:17.646989 2780312512 layer_factory.hpp:77] Creating layer relu1
I0315 03:29:17.647006 2780312512 net.cpp:84] Creating Layer relu1
I0315 03:29:17.647013 2780312512 net.cpp:406] relu1 <- ip1
I0315 03:29:17.647022 2780312512 net.cpp:367] relu1 -> ip1 (in-place)
I0315 03:29:17.647234 2780312512 net.cpp:122] Setting up relu1
I0315 03:29:17.647248 2780312512 net.cpp:129] Top shape: 64 500 (32000)
I0315 03:29:17.647254 2780312512 net.cpp:137] Memory required for data: 7136000
I0315 03:29:17.647261 2780312512 layer_factory.hpp:77] Creating layer ip2
I0315 03:29:17.647271 2780312512 net.cpp:84] Creating Layer ip2
I0315 03:29:17.647279 2780312512 net.cpp:406] ip2 <- ip1
I0315 03:29:17.647287 2780312512 net.cpp:380] ip2 -> ip2
I0315 03:29:17.647385 2780312512 net.cpp:122] Setting up ip2
I0315 03:29:17.647394 2780312512 net.cpp:129] Top shape: 64 16 (1024)
I0315 03:29:17.647402 2780312512 net.cpp:137] Memory required for data: 7140096
I0315 03:29:17.647410 2780312512 layer_factory.hpp:77] Creating layer loss
I0315 03:29:17.647420 2780312512 net.cpp:84] Creating Layer loss
I0315 03:29:17.647428 2780312512 net.cpp:406] loss <- ip2
I0315 03:29:17.647435 2780312512 net.cpp:406] loss <- label
I0315 03:29:17.647444 2780312512 net.cpp:380] loss -> loss
…
I0315 03:29:17.648284 2780312512 solver.cpp:173] Creating test net (#0) specified by net file: /Users/XP/Documents/Src/HandRecognitionML/data/sample32/lenet_train_test.prototxt
I0315 03:29:17.648313 2780312512 net.cpp:294] The NetState phase (1) differed from the phase (0) specified by a rule in layer mnist
I0315 03:29:17.648330 2780312512 net.cpp:51] Initializing net from parameters: 
name: "LeNet"
state {
  phase: TEST
}
layer {
  name: "mnist"
  type: "Data"
  top: "data"
  top: "label"
  include {
    phase: TEST
  }
  transform_param {
    scale: 0.00390625
  }
  data_param {
    source: "/Users/XP/Documents/Src/HandRecognitionML/data/sample32/test.db"
    batch_size: 100
    backend: LMDB
  }
}
layer {
  name: "conv1"
  type: "Convolution"
  bottom: "data"
  top: "conv1"
  param {
    lr_mult: 1
  }
  param {
    lr_mult: 2
  }
  convolution_param {
    num_output: 20
    kernel_size: 5
    stride: 1
    weight_filler {
      type: "xavier"
    }
    bias_filler {
      type: "constant"
    }
  }
}
layer {
  name: "pool1"
  type: "Pooling"
  bottom: "conv1"
  top: "pool1"
  pooling_param {
    pool: MAX
    kernel_size: 2
    stride: 2
  }
}
layer {
  name: "conv2"
  type: "Convolution"
  bottom: "pool1"
  top: "conv2"
  param {
    lr_mult: 1
  }
  param {
    lr_mult: 2
  }
  convolution_param {
    num_output: 50
    kernel_size: 5
    stride: 1
    weight_filler {
      type: "xavier"
    }
    bias_filler {
      type: "constant"
    }
  }
}
layer {
  name: "pool2"
  type: "Pooling"
  bottom: "conv2"
  top: "pool2"
  pooling_param {
    pool: MAX
    kernel_size: 2
    stride: 2
  }
}
layer {
  name: "ip1"
  type: "InnerProduct"
  bottom: "pool2"
  top: "ip1"
  param {
    lr_mult: 1
  }
  param {
    lr_mult: 2
  }
  inner_product_param {
    num_output: 500
    weight_filler {
      type: "xavier"
    }
    bias_filler {
      type: "constant"
    }
  }
}
layer {
  name: "relu1"
  type: "ReLU"
  bottom: "ip1"
  top: "ip1"
}
layer {
  name: "ip2"
  type: "InnerProduct"
  bottom: "ip1"
  top: "ip2"
  param {
    lr_mult: 1
  }
  param {
    lr_mult: 2
  }
  inner_product_param {
    num_output: 16
    weight_filler {
      type: "xavier"
    }
    bias_filler {
      type: "constant"
    }
  }
}
layer {
  name: "accuracy"
  type: "Accuracy"
  bottom: "ip2"
  bottom: "label"
  top: "accuracy"
  include {
    phase: TEST
  }
}
layer {
  name: "loss"
  type: "SoftmaxWithLoss"
  bottom: "ip2"
  bottom: "label"
  top: "loss"
}
I0315 03:29:17.648468 2780312512 layer_factory.hpp:77] Creating layer mnist
I0315 03:29:17.649399 2780312512 db_lmdb.cpp:35] Opened lmdb /Users/XP/Documents/Src/HandRecognitionML/data/sample32/test.db
I0315 03:29:17.650043 2780312512 net.cpp:84] Creating Layer mnist
I0315 03:29:17.650074 2780312512 net.cpp:380] mnist -> data
I0315 03:29:17.650087 2780312512 net.cpp:380] mnist -> label
I0315 03:29:17.650110 2780312512 data_layer.cpp:45] output data size: 100,1,32,32
I0315 03:29:17.651093 2780312512 net.cpp:122] Setting up mnist
I0315 03:29:17.651105 2780312512 net.cpp:129] Top shape: 100 1 32 32 (102400)
I0315 03:29:17.651113 2780312512 net.cpp:129] Top shape: 100 (100)
I0315 03:29:17.651120 2780312512 net.cpp:137] Memory required for data: 410000
I0315 03:29:17.651127 2780312512 layer_factory.hpp:77] Creating layer label_mnist_1_split
I0315 03:29:17.651142 2780312512 net.cpp:84] Creating Layer label_mnist_1_split
I0315 03:29:17.651150 2780312512 net.cpp:406] label_mnist_1_split <- label
I0315 03:29:17.651161 2780312512 net.cpp:380] label_mnist_1_split -> label_mnist_1_split_0
I0315 03:29:17.651172 2780312512 net.cpp:380] label_mnist_1_split -> label_mnist_1_split_1
I0315 03:29:17.651208 2780312512 net.cpp:122] Setting up label_mnist_1_split
I0315 03:29:17.651216 2780312512 net.cpp:129] Top shape: 100 (100)
I0315 03:29:17.651223 2780312512 net.cpp:129] Top shape: 100 (100)
I0315 03:29:17.651231 2780312512 net.cpp:137] Memory required for data: 410800
I0315 03:29:17.651237 2780312512 layer_factory.hpp:77] Creating layer conv1
I0315 03:29:17.651248 2780312512 net.cpp:84] Creating Layer conv1
I0315 03:29:17.651262 2780312512 net.cpp:406] conv1 <- data
I0315 03:29:17.651278 2780312512 net.cpp:380] conv1 -> conv1
I0315 03:29:17.652137 2780312512 net.cpp:122] Setting up conv1
I0315 03:29:17.652153 2780312512 net.cpp:129] Top shape: 100 20 28 28 (1568000)
I0315 03:29:17.652163 2780312512 net.cpp:137] Memory required for data: 6682800
I0315 03:29:17.652184 2780312512 layer_factory.hpp:77] Creating layer pool1
I0315 03:29:17.652195 2780312512 net.cpp:84] Creating Layer pool1
I0315 03:29:17.652201 2780312512 net.cpp:406] pool1 <- conv1
I0315 03:29:17.652209 2780312512 net.cpp:380] pool1 -> pool1
I0315 03:29:17.652222 2780312512 net.cpp:122] Setting up pool1
I0315 03:29:17.652230 2780312512 net.cpp:129] Top shape: 100 20 14 14 (392000)
I0315 03:29:17.652238 2780312512 net.cpp:137] Memory required for data: 8250800
I0315 03:29:17.652245 2780312512 layer_factory.hpp:77] Creating layer conv2
I0315 03:29:17.652256 2780312512 net.cpp:84] Creating Layer conv2
I0315 03:29:17.652267 2780312512 net.cpp:406] conv2 <- pool1
I0315 03:29:17.652279 2780312512 net.cpp:380] conv2 -> conv2
I0315 03:29:17.653491 2780312512 net.cpp:122] Setting up conv2
I0315 03:29:17.653506 2780312512 net.cpp:129] Top shape: 100 50 10 10 (500000)
I0315 03:29:17.653515 2780312512 net.cpp:137] Memory required for data: 10250800
I0315 03:29:17.653529 2780312512 layer_factory.hpp:77] Creating layer pool2
I0315 03:29:17.653540 2780312512 net.cpp:84] Creating Layer pool2
I0315 03:29:17.653548 2780312512 net.cpp:406] pool2 <- conv2
I0315 03:29:17.653558 2780312512 net.cpp:380] pool2 -> pool2
I0315 03:29:17.653568 2780312512 net.cpp:122] Setting up pool2
I0315 03:29:17.653574 2780312512 net.cpp:129] Top shape: 100 50 5 5 (125000)
I0315 03:29:17.653584 2780312512 net.cpp:137] Memory required for data: 10750800
I0315 03:29:17.653591 2780312512 layer_factory.hpp:77] Creating layer ip1
I0315 03:29:17.653606 2780312512 net.cpp:84] Creating Layer ip1
I0315 03:29:17.653620 2780312512 net.cpp:406] ip1 <- pool2
I0315 03:29:17.653636 2780312512 net.cpp:380] ip1 -> ip1
I0315 03:29:17.661134 2780312512 net.cpp:122] Setting up ip1
I0315 03:29:17.661182 2780312512 net.cpp:129] Top shape: 100 500 (50000)
I0315 03:29:17.661191 2780312512 net.cpp:137] Memory required for data: 10950800
I0315 03:29:17.661206 2780312512 layer_factory.hpp:77] Creating layer relu1
I0315 03:29:17.661219 2780312512 net.cpp:84] Creating Layer relu1
I0315 03:29:17.661226 2780312512 net.cpp:406] relu1 <- ip1
I0315 03:29:17.661237 2780312512 net.cpp:367] relu1 -> ip1 (in-place)
I0315 03:29:17.661615 2780312512 net.cpp:122] Setting up relu1
I0315 03:29:17.661628 2780312512 net.cpp:129] Top shape: 100 500 (50000)
I0315 03:29:17.661636 2780312512 net.cpp:137] Memory required for data: 11150800
I0315 03:29:17.661643 2780312512 layer_factory.hpp:77] Creating layer ip2
I0315 03:29:17.661664 2780312512 net.cpp:84] Creating Layer ip2
I0315 03:29:17.661676 2780312512 net.cpp:406] ip2 <- ip1
I0315 03:29:17.661694 2780312512 net.cpp:380] ip2 -> ip2
I0315 03:29:17.661831 2780312512 net.cpp:122] Setting up ip2
I0315 03:29:17.661842 2780312512 net.cpp:129] Top shape: 100 16 (1600)
I0315 03:29:17.661850 2780312512 net.cpp:137] Memory required for data: 11157200
I0315 03:29:17.661864 2780312512 layer_factory.hpp:77] Creating layer ip2_ip2_0_split
I0315 03:29:17.661880 2780312512 net.cpp:84] Creating Layer ip2_ip2_0_split
I0315 03:29:17.661890 2780312512 net.cpp:406] ip2_ip2_0_split <- ip2
I0315 03:29:17.661900 2780312512 net.cpp:380] ip2_ip2_0_split -> ip2_ip2_0_split_0
I0315 03:29:17.661911 2780312512 net.cpp:380] ip2_ip2_0_split -> ip2_ip2_0_split_1
I0315 03:29:17.661921 2780312512 net.cpp:122] Setting up ip2_ip2_0_split
I0315 03:29:17.661965 2780312512 net.cpp:129] Top shape: 100 16 (1600)
I0315 03:29:17.661975 2780312512 net.cpp:129] Top shape: 100 16 (1600)
I0315 03:29:17.661983 2780312512 net.cpp:137] Memory required for data: 11170000
I0315 03:29:17.661990 2780312512 layer_factory.hpp:77] Creating layer accuracy
I0315 03:29:17.662001 2780312512 net.cpp:84] Creating Layer accuracy
I0315 03:29:17.662009 2780312512 net.cpp:406] accuracy <- ip2_ip2_0_split_0
I0315 03:29:17.662017 2780312512 net.cpp:406] accuracy <- label_mnist_1_split_0
I0315 03:29:17.662025 2780312512 net.cpp:380] accuracy -> accuracy
…
