…
I0314 18:45:52.070307 2780312512 net.cpp:294] The NetState phase (0) differed from the phase (1) specified by a rule in layer accuracy
I0314 18:45:52.070317 2780312512 net.cpp:51] Initializing net from parameters: 
name: "LeNet"
state {
  phase: TRAIN
  level: 0
  stage: ""
}
layer {
  name: "mnist"
  type: "Data"
  top: "data"
  top: "label"
  include {
    phase: TRAIN
  }
  transform_param {
    scale: 0.00390625
  }
  data_param {
    source: "/Users/XP/Documents/Src/HandRecognitionML/data/sample128/train.db"
    batch_size: 64
    backend: LMDB
  }
}
layer {
  name: "conv1"
  type: "Convolution"
  bottom: "data"
  top: "conv1"
  param {
    lr_mult: 1
  }
  param {
    lr_mult: 2
  }
  convolution_param {
    num_output: 20
    kernel_size: 5
    stride: 1
    weight_filler {
      type: "xavier"
    }
    bias_filler {
      type: "constant"
    }
  }
}
layer {
  name: "pool1"
  type: "Pooling"
  bottom: "conv1"
  top: "pool1"
  pooling_param {
    pool: MAX
    kernel_size: 2
    stride: 2
  }
}
layer {
  name: "conv2"
  type: "Convolution"
  bottom: "pool1"
  top: "conv2"
  param {
    lr_mult: 1
  }
  param {
    lr_mult: 2
  }
  convolution_param {
    num_output: 50
    kernel_size: 5
    stride: 1
    weight_filler {
      type: "xavier"
    }
    bias_filler {
      type: "constant"
    }
  }
}
layer {
  name: "pool2"
  type: "Pooling"
  bottom: "conv2"
  top: "pool2"
  pooling_param {
    pool: MAX
    kernel_size: 2
    stride: 2
  }
}
layer {
  name: "ip1"
  type: "InnerProduct"
  bottom: "pool2"
  top: "ip1"
  param {
    lr_mult: 1
  }
  param {
    lr_mult: 2
  }
  inner_product_param {
    num_output: 500
    weight_filler {
      type: "xavier"
    }
    bias_filler {
      type: "constant"
    }
  }
}
layer {
  name: "relu1"
  type: "ReLU"
  bottom: "ip1"
  top: "ip1"
}
layer {
  name: "ip2"
  type: "InnerProduct"
  bottom: "ip1"
  top: "ip2"
  param {
    lr_mult: 1
  }
  param {
    lr_mult: 2
  }
  inner_product_param {
    num_output: 16
    weight_filler {
      type: "xavier"
    }
    bias_filler {
      type: "constant"
    }
  }
}
layer {
  name: "loss"
  type: "SoftmaxWithLoss"
  bottom: "ip2"
  bottom: "label"
  top: "loss"
}
I0314 18:45:52.070439 2780312512 layer_factory.hpp:77] Creating layer mnist
I0314 18:45:52.070698 2780312512 db_lmdb.cpp:35] Opened lmdb /Users/XP/Documents/Src/HandRecognitionML/data/sample128/train.db
I0314 18:45:52.070765 2780312512 net.cpp:84] Creating Layer mnist
I0314 18:45:52.070778 2780312512 net.cpp:380] mnist -> data
I0314 18:45:52.070801 2780312512 net.cpp:380] mnist -> label
I0314 18:45:52.070866 2780312512 data_layer.cpp:45] output data size: 64,1,128,128
I0314 18:45:52.085825 2780312512 net.cpp:122] Setting up mnist
I0314 18:45:52.085851 2780312512 net.cpp:129] Top shape: 64 1 128 128 (1048576)
I0314 18:45:52.085862 2780312512 net.cpp:129] Top shape: 64 (64)
I0314 18:45:52.085870 2780312512 net.cpp:137] Memory required for data: 4194560
I0314 18:45:52.085880 2780312512 layer_factory.hpp:77] Creating layer conv1
I0314 18:45:52.085902 2780312512 net.cpp:84] Creating Layer conv1
I0314 18:45:52.085911 2780312512 net.cpp:406] conv1 <- data
I0314 18:45:52.085922 2780312512 net.cpp:380] conv1 -> conv1
I0314 18:45:52.894413 2780312512 net.cpp:122] Setting up conv1
I0314 18:45:52.894443 2780312512 net.cpp:129] Top shape: 64 20 124 124 (19681280)
I0314 18:45:52.895316 2780312512 net.cpp:137] Memory required for data: 82919680
I0314 18:45:52.895335 2780312512 layer_factory.hpp:77] Creating layer pool1
I0314 18:45:52.895351 2780312512 net.cpp:84] Creating Layer pool1
I0314 18:45:52.895359 2780312512 net.cpp:406] pool1 <- conv1
I0314 18:45:52.895370 2780312512 net.cpp:380] pool1 -> pool1
I0314 18:45:52.895387 2780312512 net.cpp:122] Setting up pool1
I0314 18:45:52.895395 2780312512 net.cpp:129] Top shape: 64 20 62 62 (4920320)
I0314 18:45:52.895404 2780312512 net.cpp:137] Memory required for data: 102600960
I0314 18:45:52.895411 2780312512 layer_factory.hpp:77] Creating layer conv2
I0314 18:45:52.895424 2780312512 net.cpp:84] Creating Layer conv2
I0314 18:45:52.895432 2780312512 net.cpp:406] conv2 <- pool1
I0314 18:45:52.895440 2780312512 net.cpp:380] conv2 -> conv2
I0314 18:45:52.896718 2780312512 net.cpp:122] Setting up conv2
I0314 18:45:52.896731 2780312512 net.cpp:129] Top shape: 64 50 58 58 (10764800)
I0314 18:45:52.896740 2780312512 net.cpp:137] Memory required for data: 145660160
I0314 18:45:52.896752 2780312512 layer_factory.hpp:77] Creating layer pool2
I0314 18:45:52.896764 2780312512 net.cpp:84] Creating Layer pool2
I0314 18:45:52.896771 2780312512 net.cpp:406] pool2 <- conv2
I0314 18:45:52.896780 2780312512 net.cpp:380] pool2 -> pool2
I0314 18:45:52.896790 2780312512 net.cpp:122] Setting up pool2
I0314 18:45:52.896802 2780312512 net.cpp:129] Top shape: 64 50 29 29 (2691200)
I0314 18:45:52.896817 2780312512 net.cpp:137] Memory required for data: 156424960
I0314 18:45:52.896827 2780312512 layer_factory.hpp:77] Creating layer ip1
I0314 18:45:52.896848 2780312512 net.cpp:84] Creating Layer ip1
I0314 18:45:52.896862 2780312512 net.cpp:406] ip1 <- pool2
I0314 18:45:52.896878 2780312512 net.cpp:380] ip1 -> ip1
I0314 18:45:53.141861 2780312512 net.cpp:122] Setting up ip1
I0314 18:45:53.141891 2780312512 net.cpp:129] Top shape: 64 500 (32000)
I0314 18:45:53.141901 2780312512 net.cpp:137] Memory required for data: 156552960
I0314 18:45:53.141914 2780312512 layer_factory.hpp:77] Creating layer relu1
I0314 18:45:53.141933 2780312512 net.cpp:84] Creating Layer relu1
I0314 18:45:53.141943 2780312512 net.cpp:406] relu1 <- ip1
I0314 18:45:53.141952 2780312512 net.cpp:367] relu1 -> ip1 (in-place)
I0314 18:45:53.142226 2780312512 net.cpp:122] Setting up relu1
I0314 18:45:53.142238 2780312512 net.cpp:129] Top shape: 64 500 (32000)
I0314 18:45:53.142246 2780312512 net.cpp:137] Memory required for data: 156680960
I0314 18:45:53.142253 2780312512 layer_factory.hpp:77] Creating layer ip2
I0314 18:45:53.142264 2780312512 net.cpp:84] Creating Layer ip2
I0314 18:45:53.142272 2780312512 net.cpp:406] ip2 <- ip1
I0314 18:45:53.142280 2780312512 net.cpp:380] ip2 -> ip2
I0314 18:45:53.142390 2780312512 net.cpp:122] Setting up ip2
I0314 18:45:53.142400 2780312512 net.cpp:129] Top shape: 64 16 (1024)
I0314 18:45:53.142408 2780312512 net.cpp:137] Memory required for data: 156685056
I0314 18:45:53.142416 2780312512 layer_factory.hpp:77] Creating layer loss
I0314 18:45:53.142426 2780312512 net.cpp:84] Creating Layer loss
I0314 18:45:53.142433 2780312512 net.cpp:406] loss <- ip2
I0314 18:45:53.142441 2780312512 net.cpp:406] loss <- label
I0314 18:45:53.142449 2780312512 net.cpp:380] loss -> loss
…
I0314 18:45:53.143335 2780312512 solver.cpp:173] Creating test net (#0) specified by net file: /Users/XP/Documents/Src/HandRecognitionML/data/sample128/lenet_train_test.prototxt
I0314 18:45:53.143364 2780312512 net.cpp:294] The NetState phase (1) differed from the phase (0) specified by a rule in layer mnist
I0314 18:45:53.143380 2780312512 net.cpp:51] Initializing net from parameters: 
name: "LeNet"
state {
  phase: TEST
}
layer {
  name: "mnist"
  type: "Data"
  top: "data"
  top: "label"
  include {
    phase: TEST
  }
  transform_param {
    scale: 0.00390625
  }
  data_param {
    source: "/Users/XP/Documents/Src/HandRecognitionML/data/sample128/test.db"
    batch_size: 100
    backend: LMDB
  }
}
layer {
  name: "conv1"
  type: "Convolution"
  bottom: "data"
  top: "conv1"
  param {
    lr_mult: 1
  }
  param {
    lr_mult: 2
  }
  convolution_param {
    num_output: 20
    kernel_size: 5
    stride: 1
    weight_filler {
      type: "xavier"
    }
    bias_filler {
      type: "constant"
    }
  }
}
layer {
  name: "pool1"
  type: "Pooling"
  bottom: "conv1"
  top: "pool1"
  pooling_param {
    pool: MAX
    kernel_size: 2
    stride: 2
  }
}
layer {
  name: "conv2"
  type: "Convolution"
  bottom: "pool1"
  top: "conv2"
  param {
    lr_mult: 1
  }
  param {
    lr_mult: 2
  }
  convolution_param {
    num_output: 50
    kernel_size: 5
    stride: 1
    weight_filler {
      type: "xavier"
    }
    bias_filler {
      type: "constant"
    }
  }
}
layer {
  name: "pool2"
  type: "Pooling"
  bottom: "conv2"
  top: "pool2"
  pooling_param {
    pool: MAX
    kernel_size: 2
    stride: 2
  }
}
layer {
  name: "ip1"
  type: "InnerProduct"
  bottom: "pool2"
  top: "ip1"
  param {
    lr_mult: 1
  }
  param {
    lr_mult: 2
  }
  inner_product_param {
    num_output: 500
    weight_filler {
      type: "xavier"
    }
    bias_filler {
      type: "constant"
    }
  }
}
layer {
  name: "relu1"
  type: "ReLU"
  bottom: "ip1"
  top: "ip1"
}
layer {
  name: "ip2"
  type: "InnerProduct"
  bottom: "ip1"
  top: "ip2"
  param {
    lr_mult: 1
  }
  param {
    lr_mult: 2
  }
  inner_product_param {
    num_output: 16
    weight_filler {
      type: "xavier"
    }
    bias_filler {
      type: "constant"
    }
  }
}
layer {
  name: "accuracy"
  type: "Accuracy"
  bottom: "ip2"
  bottom: "label"
  top: "accuracy"
  include {
    phase: TEST
  }
}
layer {
  name: "loss"
  type: "SoftmaxWithLoss"
  bottom: "ip2"
  bottom: "label"
  top: "loss"
}
I0314 18:45:53.143517 2780312512 layer_factory.hpp:77] Creating layer mnist
I0314 18:45:53.143612 2780312512 db_lmdb.cpp:35] Opened lmdb /Users/XP/Documents/Src/HandRecognitionML/data/sample128/test.db
I0314 18:45:53.143638 2780312512 net.cpp:84] Creating Layer mnist
I0314 18:45:53.143649 2780312512 net.cpp:380] mnist -> data
I0314 18:45:53.143661 2780312512 net.cpp:380] mnist -> label
I0314 18:45:53.143713 2780312512 data_layer.cpp:45] output data size: 100,1,128,128
I0314 18:45:53.157541 2780312512 net.cpp:122] Setting up mnist
I0314 18:45:53.157575 2780312512 net.cpp:129] Top shape: 100 1 128 128 (1638400)
I0314 18:45:53.157588 2780312512 net.cpp:129] Top shape: 100 (100)
I0314 18:45:53.157595 2780312512 net.cpp:137] Memory required for data: 6554000
I0314 18:45:53.157604 2780312512 layer_factory.hpp:77] Creating layer label_mnist_1_split
I0314 18:45:53.157624 2780312512 net.cpp:84] Creating Layer label_mnist_1_split
I0314 18:45:53.157634 2780312512 net.cpp:406] label_mnist_1_split <- label
I0314 18:45:53.157651 2780312512 net.cpp:380] label_mnist_1_split -> label_mnist_1_split_0
I0314 18:45:53.157665 2780312512 net.cpp:380] label_mnist_1_split -> label_mnist_1_split_1
I0314 18:45:53.157701 2780312512 net.cpp:122] Setting up label_mnist_1_split
I0314 18:45:53.157709 2780312512 net.cpp:129] Top shape: 100 (100)
I0314 18:45:53.157716 2780312512 net.cpp:129] Top shape: 100 (100)
I0314 18:45:53.157723 2780312512 net.cpp:137] Memory required for data: 6554800
I0314 18:45:53.157729 2780312512 layer_factory.hpp:77] Creating layer conv1
I0314 18:45:53.157742 2780312512 net.cpp:84] Creating Layer conv1
I0314 18:45:53.157750 2780312512 net.cpp:406] conv1 <- data
I0314 18:45:53.157762 2780312512 net.cpp:380] conv1 -> conv1
I0314 18:45:53.158879 2780312512 net.cpp:122] Setting up conv1
I0314 18:45:53.158893 2780312512 net.cpp:129] Top shape: 100 20 124 124 (30752000)
I0314 18:45:53.158903 2780312512 net.cpp:137] Memory required for data: 129562800
I0314 18:45:53.158915 2780312512 layer_factory.hpp:77] Creating layer pool1
I0314 18:45:53.158927 2780312512 net.cpp:84] Creating Layer pool1
I0314 18:45:53.158936 2780312512 net.cpp:406] pool1 <- conv1
I0314 18:45:53.158974 2780312512 net.cpp:380] pool1 -> pool1
I0314 18:45:53.158993 2780312512 net.cpp:122] Setting up pool1
I0314 18:45:53.159006 2780312512 net.cpp:129] Top shape: 100 20 62 62 (7688000)
I0314 18:45:53.159023 2780312512 net.cpp:137] Memory required for data: 160314800
I0314 18:45:53.159035 2780312512 layer_factory.hpp:77] Creating layer conv2
I0314 18:45:53.159055 2780312512 net.cpp:84] Creating Layer conv2
I0314 18:45:53.159068 2780312512 net.cpp:406] conv2 <- pool1
I0314 18:45:53.159080 2780312512 net.cpp:380] conv2 -> conv2
I0314 18:45:53.160205 2780312512 net.cpp:122] Setting up conv2
I0314 18:45:53.160219 2780312512 net.cpp:129] Top shape: 100 50 58 58 (16820000)
I0314 18:45:53.160228 2780312512 net.cpp:137] Memory required for data: 227594800
I0314 18:45:53.160241 2780312512 layer_factory.hpp:77] Creating layer pool2
I0314 18:45:53.160253 2780312512 net.cpp:84] Creating Layer pool2
I0314 18:45:53.160261 2780312512 net.cpp:406] pool2 <- conv2
I0314 18:45:53.160276 2780312512 net.cpp:380] pool2 -> pool2
I0314 18:45:53.160296 2780312512 net.cpp:122] Setting up pool2
I0314 18:45:53.160310 2780312512 net.cpp:129] Top shape: 100 50 29 29 (4205000)
I0314 18:45:53.160327 2780312512 net.cpp:137] Memory required for data: 244414800
I0314 18:45:53.160338 2780312512 layer_factory.hpp:77] Creating layer ip1
I0314 18:45:53.160353 2780312512 net.cpp:84] Creating Layer ip1
I0314 18:45:53.160367 2780312512 net.cpp:406] ip1 <- pool2
I0314 18:45:53.160383 2780312512 net.cpp:380] ip1 -> ip1
I0314 18:45:53.407634 2780312512 net.cpp:122] Setting up ip1
I0314 18:45:53.407665 2780312512 net.cpp:129] Top shape: 100 500 (50000)
I0314 18:45:53.407675 2780312512 net.cpp:137] Memory required for data: 244614800
I0314 18:45:53.407688 2780312512 layer_factory.hpp:77] Creating layer relu1
I0314 18:45:53.407701 2780312512 net.cpp:84] Creating Layer relu1
I0314 18:45:53.407708 2780312512 net.cpp:406] relu1 <- ip1
I0314 18:45:53.407716 2780312512 net.cpp:367] relu1 -> ip1 (in-place)
I0314 18:45:53.408010 2780312512 net.cpp:122] Setting up relu1
I0314 18:45:53.408021 2780312512 net.cpp:129] Top shape: 100 500 (50000)
I0314 18:45:53.408030 2780312512 net.cpp:137] Memory required for data: 244814800
I0314 18:45:53.408036 2780312512 layer_factory.hpp:77] Creating layer ip2
I0314 18:45:53.408048 2780312512 net.cpp:84] Creating Layer ip2
I0314 18:45:53.408056 2780312512 net.cpp:406] ip2 <- ip1
I0314 18:45:53.408066 2780312512 net.cpp:380] ip2 -> ip2
I0314 18:45:53.408205 2780312512 net.cpp:122] Setting up ip2
I0314 18:45:53.408215 2780312512 net.cpp:129] Top shape: 100 16 (1600)
I0314 18:45:53.408223 2780312512 net.cpp:137] Memory required for data: 244821200
I0314 18:45:53.408232 2780312512 layer_factory.hpp:77] Creating layer ip2_ip2_0_split
I0314 18:45:53.408242 2780312512 net.cpp:84] Creating Layer ip2_ip2_0_split
I0314 18:45:53.408249 2780312512 net.cpp:406] ip2_ip2_0_split <- ip2
I0314 18:45:53.408257 2780312512 net.cpp:380] ip2_ip2_0_split -> ip2_ip2_0_split_0
I0314 18:45:53.408267 2780312512 net.cpp:380] ip2_ip2_0_split -> ip2_ip2_0_split_1
I0314 18:45:53.408301 2780312512 net.cpp:122] Setting up ip2_ip2_0_split
I0314 18:45:53.408309 2780312512 net.cpp:129] Top shape: 100 16 (1600)
I0314 18:45:53.408316 2780312512 net.cpp:129] Top shape: 100 16 (1600)
I0314 18:45:53.408324 2780312512 net.cpp:137] Memory required for data: 244834000
I0314 18:45:53.408329 2780312512 layer_factory.hpp:77] Creating layer accuracy
I0314 18:45:53.408339 2780312512 net.cpp:84] Creating Layer accuracy
I0314 18:45:53.408344 2780312512 net.cpp:406] accuracy <- ip2_ip2_0_split_0
I0314 18:45:53.408351 2780312512 net.cpp:406] accuracy <- label_mnist_1_split_0
I0314 18:45:53.408360 2780312512 net.cpp:380] accuracy -> accuracy
…
