…
I0315 01:54:00.048298 2780312512 net.cpp:294] The NetState phase (0) differed from the phase (1) specified by a rule in layer accuracy
I0315 01:54:00.048316 2780312512 net.cpp:51] Initializing net from parameters: 
name: "LeNet"
state {
  phase: TRAIN
  level: 0
  stage: ""
}
layer {
  name: "mnist"
  type: "Data"
  top: "data"
  top: "label"
  include {
    phase: TRAIN
  }
  transform_param {
    scale: 0.00390625
  }
  data_param {
    source: "/Users/XP/Documents/Src/HandRecognitionML/data/sample64/train.db"
    batch_size: 64
    backend: LMDB
  }
}
layer {
  name: "conv1"
  type: "Convolution"
  bottom: "data"
  top: "conv1"
  param {
    lr_mult: 1
  }
  param {
    lr_mult: 2
  }
  convolution_param {
    num_output: 20
    kernel_size: 5
    stride: 1
    weight_filler {
      type: "xavier"
    }
    bias_filler {
      type: "constant"
    }
  }
}
layer {
  name: "pool1"
  type: "Pooling"
  bottom: "conv1"
  top: "pool1"
  pooling_param {
    pool: MAX
    kernel_size: 2
    stride: 2
  }
}
layer {
  name: "conv2"
  type: "Convolution"
  bottom: "pool1"
  top: "conv2"
  param {
    lr_mult: 1
  }
  param {
    lr_mult: 2
  }
  convolution_param {
    num_output: 50
    kernel_size: 5
    stride: 1
    weight_filler {
      type: "xavier"
    }
    bias_filler {
      type: "constant"
    }
  }
}
layer {
  name: "pool2"
  type: "Pooling"
  bottom: "conv2"
  top: "pool2"
  pooling_param {
    pool: MAX
    kernel_size: 2
    stride: 2
  }
}
layer {
  name: "ip1"
  type: "InnerProduct"
  bottom: "pool2"
  top: "ip1"
  param {
    lr_mult: 1
  }
  param {
    lr_mult: 2
  }
  inner_product_param {
    num_output: 500
    weight_filler {
      type: "xavier"
    }
    bias_filler {
      type: "constant"
    }
  }
}
layer {
  name: "relu1"
  type: "ReLU"
  bottom: "ip1"
  top: "ip1"
}
layer {
  name: "ip2"
  type: "InnerProduct"
  bottom: "ip1"
  top: "ip2"
  param {
    lr_mult: 1
  }
  param {
    lr_mult: 2
  }
  inner_product_param {
    num_output: 16
    weight_filler {
      type: "xavier"
    }
    bias_filler {
      type: "constant"
    }
  }
}
layer {
  name: "loss"
  type: "SoftmaxWithLoss"
  bottom: "ip2"
  bottom: "label"
  top: "loss"
}
I0315 01:54:00.048537 2780312512 layer_factory.hpp:77] Creating layer mnist
I0315 01:54:00.048920 2780312512 db_lmdb.cpp:35] Opened lmdb /Users/XP/Documents/Src/HandRecognitionML/data/sample64/train.db
I0315 01:54:00.049017 2780312512 net.cpp:84] Creating Layer mnist
I0315 01:54:00.049038 2780312512 net.cpp:380] mnist -> data
I0315 01:54:00.049073 2780312512 net.cpp:380] mnist -> label
I0315 01:54:00.049137 2780312512 data_layer.cpp:45] output data size: 64,1,64,64
I0315 01:54:00.057920 2780312512 net.cpp:122] Setting up mnist
I0315 01:54:00.057950 2780312512 net.cpp:129] Top shape: 64 1 64 64 (262144)
I0315 01:54:00.057960 2780312512 net.cpp:129] Top shape: 64 (64)
I0315 01:54:00.057967 2780312512 net.cpp:137] Memory required for data: 1048832
I0315 01:54:00.057979 2780312512 layer_factory.hpp:77] Creating layer conv1
I0315 01:54:00.058001 2780312512 net.cpp:84] Creating Layer conv1
I0315 01:54:00.058009 2780312512 net.cpp:406] conv1 <- data
I0315 01:54:00.058019 2780312512 net.cpp:380] conv1 -> conv1
I0315 01:54:00.826442 2780312512 net.cpp:122] Setting up conv1
I0315 01:54:00.826475 2780312512 net.cpp:129] Top shape: 64 20 60 60 (4608000)
I0315 01:54:00.826560 2780312512 net.cpp:137] Memory required for data: 19480832
I0315 01:54:00.826581 2780312512 layer_factory.hpp:77] Creating layer pool1
I0315 01:54:00.826599 2780312512 net.cpp:84] Creating Layer pool1
I0315 01:54:00.826606 2780312512 net.cpp:406] pool1 <- conv1
I0315 01:54:00.826616 2780312512 net.cpp:380] pool1 -> pool1
I0315 01:54:00.826635 2780312512 net.cpp:122] Setting up pool1
I0315 01:54:00.826642 2780312512 net.cpp:129] Top shape: 64 20 30 30 (1152000)
I0315 01:54:00.826650 2780312512 net.cpp:137] Memory required for data: 24088832
I0315 01:54:00.826658 2780312512 layer_factory.hpp:77] Creating layer conv2
I0315 01:54:00.826671 2780312512 net.cpp:84] Creating Layer conv2
I0315 01:54:00.826683 2780312512 net.cpp:406] conv2 <- pool1
I0315 01:54:00.826699 2780312512 net.cpp:380] conv2 -> conv2
I0315 01:54:00.827895 2780312512 net.cpp:122] Setting up conv2
I0315 01:54:00.827910 2780312512 net.cpp:129] Top shape: 64 50 26 26 (2163200)
I0315 01:54:00.827919 2780312512 net.cpp:137] Memory required for data: 32741632
I0315 01:54:00.827930 2780312512 layer_factory.hpp:77] Creating layer pool2
I0315 01:54:00.827942 2780312512 net.cpp:84] Creating Layer pool2
I0315 01:54:00.827950 2780312512 net.cpp:406] pool2 <- conv2
I0315 01:54:00.827962 2780312512 net.cpp:380] pool2 -> pool2
I0315 01:54:00.827983 2780312512 net.cpp:122] Setting up pool2
I0315 01:54:00.828001 2780312512 net.cpp:129] Top shape: 64 50 13 13 (540800)
I0315 01:54:00.828018 2780312512 net.cpp:137] Memory required for data: 34904832
I0315 01:54:00.828029 2780312512 layer_factory.hpp:77] Creating layer ip1
I0315 01:54:00.828049 2780312512 net.cpp:84] Creating Layer ip1
I0315 01:54:00.828061 2780312512 net.cpp:406] ip1 <- pool2
I0315 01:54:00.828075 2780312512 net.cpp:380] ip1 -> ip1
I0315 01:54:00.878465 2780312512 net.cpp:122] Setting up ip1
I0315 01:54:00.878499 2780312512 net.cpp:129] Top shape: 64 500 (32000)
I0315 01:54:00.878509 2780312512 net.cpp:137] Memory required for data: 35032832
I0315 01:54:00.878525 2780312512 layer_factory.hpp:77] Creating layer relu1
I0315 01:54:00.878547 2780312512 net.cpp:84] Creating Layer relu1
I0315 01:54:00.878557 2780312512 net.cpp:406] relu1 <- ip1
I0315 01:54:00.878566 2780312512 net.cpp:367] relu1 -> ip1 (in-place)
I0315 01:54:00.878832 2780312512 net.cpp:122] Setting up relu1
I0315 01:54:00.878846 2780312512 net.cpp:129] Top shape: 64 500 (32000)
I0315 01:54:00.878855 2780312512 net.cpp:137] Memory required for data: 35160832
I0315 01:54:00.878862 2780312512 layer_factory.hpp:77] Creating layer ip2
I0315 01:54:00.878873 2780312512 net.cpp:84] Creating Layer ip2
I0315 01:54:00.878883 2780312512 net.cpp:406] ip2 <- ip1
I0315 01:54:00.878893 2780312512 net.cpp:380] ip2 -> ip2
I0315 01:54:00.878993 2780312512 net.cpp:122] Setting up ip2
I0315 01:54:00.879001 2780312512 net.cpp:129] Top shape: 64 16 (1024)
I0315 01:54:00.879009 2780312512 net.cpp:137] Memory required for data: 35164928
I0315 01:54:00.879019 2780312512 layer_factory.hpp:77] Creating layer loss
I0315 01:54:00.879029 2780312512 net.cpp:84] Creating Layer loss
I0315 01:54:00.879036 2780312512 net.cpp:406] loss <- ip2
I0315 01:54:00.879043 2780312512 net.cpp:406] loss <- label
I0315 01:54:00.879052 2780312512 net.cpp:380] loss -> loss
…
I0315 01:54:00.879930 2780312512 solver.cpp:173] Creating test net (#0) specified by net file: /Users/XP/Documents/Src/HandRecognitionML/data/sample64/lenet_train_test.prototxt
I0315 01:54:00.879961 2780312512 net.cpp:294] The NetState phase (1) differed from the phase (0) specified by a rule in layer mnist
I0315 01:54:00.879977 2780312512 net.cpp:51] Initializing net from parameters: 
name: "LeNet"
state {
  phase: TEST
}
layer {
  name: "mnist"
  type: "Data"
  top: "data"
  top: "label"
  include {
    phase: TEST
  }
  transform_param {
    scale: 0.00390625
  }
  data_param {
    source: "/Users/XP/Documents/Src/HandRecognitionML/data/sample64/test.db"
    batch_size: 100
    backend: LMDB
  }
}
layer {
  name: "conv1"
  type: "Convolution"
  bottom: "data"
  top: "conv1"
  param {
    lr_mult: 1
  }
  param {
    lr_mult: 2
  }
  convolution_param {
    num_output: 20
    kernel_size: 5
    stride: 1
    weight_filler {
      type: "xavier"
    }
    bias_filler {
      type: "constant"
    }
  }
}
layer {
  name: "pool1"
  type: "Pooling"
  bottom: "conv1"
  top: "pool1"
  pooling_param {
    pool: MAX
    kernel_size: 2
    stride: 2
  }
}
layer {
  name: "conv2"
  type: "Convolution"
  bottom: "pool1"
  top: "conv2"
  param {
    lr_mult: 1
  }
  param {
    lr_mult: 2
  }
  convolution_param {
    num_output: 50
    kernel_size: 5
    stride: 1
    weight_filler {
      type: "xavier"
    }
    bias_filler {
      type: "constant"
    }
  }
}
layer {
  name: "pool2"
  type: "Pooling"
  bottom: "conv2"
  top: "pool2"
  pooling_param {
    pool: MAX
    kernel_size: 2
    stride: 2
  }
}
layer {
  name: "ip1"
  type: "InnerProduct"
  bottom: "pool2"
  top: "ip1"
  param {
    lr_mult: 1
  }
  param {
    lr_mult: 2
  }
  inner_product_param {
    num_output: 500
    weight_filler {
      type: "xavier"
    }
    bias_filler {
      type: "constant"
    }
  }
}
layer {
  name: "relu1"
  type: "ReLU"
  bottom: "ip1"
  top: "ip1"
}
layer {
  name: "ip2"
  type: "InnerProduct"
  bottom: "ip1"
  top: "ip2"
  param {
    lr_mult: 1
  }
  param {
    lr_mult: 2
  }
  inner_product_param {
    num_output: 16
    weight_filler {
      type: "xavier"
    }
    bias_filler {
      type: "constant"
    }
  }
}
layer {
  name: "accuracy"
  type: "Accuracy"
  bottom: "ip2"
  bottom: "label"
  top: "accuracy"
  include {
    phase: TEST
  }
}
layer {
  name: "loss"
  type: "SoftmaxWithLoss"
  bottom: "ip2"
  bottom: "label"
  top: "loss"
}
I0315 01:54:00.880120 2780312512 layer_factory.hpp:77] Creating layer mnist
I0315 01:54:00.880959 2780312512 db_lmdb.cpp:35] Opened lmdb /Users/XP/Documents/Src/HandRecognitionML/data/sample64/test.db
I0315 01:54:00.881417 2780312512 net.cpp:84] Creating Layer mnist
I0315 01:54:00.881433 2780312512 net.cpp:380] mnist -> data
I0315 01:54:00.881444 2780312512 net.cpp:380] mnist -> label
I0315 01:54:00.881691 2780312512 data_layer.cpp:45] output data size: 100,1,64,64
I0315 01:54:00.885787 2780312512 net.cpp:122] Setting up mnist
I0315 01:54:00.885813 2780312512 net.cpp:129] Top shape: 100 1 64 64 (409600)
I0315 01:54:00.885823 2780312512 net.cpp:129] Top shape: 100 (100)
I0315 01:54:00.885830 2780312512 net.cpp:137] Memory required for data: 1638800
I0315 01:54:00.885838 2780312512 layer_factory.hpp:77] Creating layer label_mnist_1_split
I0315 01:54:00.885856 2780312512 net.cpp:84] Creating Layer label_mnist_1_split
I0315 01:54:00.885864 2780312512 net.cpp:406] label_mnist_1_split <- label
I0315 01:54:00.885875 2780312512 net.cpp:380] label_mnist_1_split -> label_mnist_1_split_0
I0315 01:54:00.885887 2780312512 net.cpp:380] label_mnist_1_split -> label_mnist_1_split_1
I0315 01:54:00.885936 2780312512 net.cpp:122] Setting up label_mnist_1_split
I0315 01:54:00.885944 2780312512 net.cpp:129] Top shape: 100 (100)
I0315 01:54:00.885951 2780312512 net.cpp:129] Top shape: 100 (100)
I0315 01:54:00.885958 2780312512 net.cpp:137] Memory required for data: 1639600
I0315 01:54:00.885964 2780312512 layer_factory.hpp:77] Creating layer conv1
I0315 01:54:00.885977 2780312512 net.cpp:84] Creating Layer conv1
I0315 01:54:00.885983 2780312512 net.cpp:406] conv1 <- data
I0315 01:54:00.885993 2780312512 net.cpp:380] conv1 -> conv1
I0315 01:54:00.887081 2780312512 net.cpp:122] Setting up conv1
I0315 01:54:00.887100 2780312512 net.cpp:129] Top shape: 100 20 60 60 (7200000)
I0315 01:54:00.887115 2780312512 net.cpp:137] Memory required for data: 30439600
I0315 01:54:00.887135 2780312512 layer_factory.hpp:77] Creating layer pool1
I0315 01:54:00.887151 2780312512 net.cpp:84] Creating Layer pool1
I0315 01:54:00.887161 2780312512 net.cpp:406] pool1 <- conv1
I0315 01:54:00.887176 2780312512 net.cpp:380] pool1 -> pool1
I0315 01:54:00.887194 2780312512 net.cpp:122] Setting up pool1
I0315 01:54:00.887205 2780312512 net.cpp:129] Top shape: 100 20 30 30 (1800000)
I0315 01:54:00.887219 2780312512 net.cpp:137] Memory required for data: 37639600
I0315 01:54:00.887230 2780312512 layer_factory.hpp:77] Creating layer conv2
I0315 01:54:00.887248 2780312512 net.cpp:84] Creating Layer conv2
I0315 01:54:00.887259 2780312512 net.cpp:406] conv2 <- pool1
I0315 01:54:00.887274 2780312512 net.cpp:380] conv2 -> conv2
I0315 01:54:00.889271 2780312512 net.cpp:122] Setting up conv2
I0315 01:54:00.889292 2780312512 net.cpp:129] Top shape: 100 50 26 26 (3380000)
I0315 01:54:00.889307 2780312512 net.cpp:137] Memory required for data: 51159600
I0315 01:54:00.889330 2780312512 layer_factory.hpp:77] Creating layer pool2
I0315 01:54:00.889346 2780312512 net.cpp:84] Creating Layer pool2
I0315 01:54:00.889358 2780312512 net.cpp:406] pool2 <- conv2
I0315 01:54:00.889372 2780312512 net.cpp:380] pool2 -> pool2
I0315 01:54:00.889390 2780312512 net.cpp:122] Setting up pool2
I0315 01:54:00.889402 2780312512 net.cpp:129] Top shape: 100 50 13 13 (845000)
I0315 01:54:00.889416 2780312512 net.cpp:137] Memory required for data: 54539600
I0315 01:54:00.889427 2780312512 layer_factory.hpp:77] Creating layer ip1
I0315 01:54:00.889442 2780312512 net.cpp:84] Creating Layer ip1
I0315 01:54:00.889454 2780312512 net.cpp:406] ip1 <- pool2
I0315 01:54:00.889468 2780312512 net.cpp:380] ip1 -> ip1
I0315 01:54:00.939586 2780312512 net.cpp:122] Setting up ip1
I0315 01:54:00.939622 2780312512 net.cpp:129] Top shape: 100 500 (50000)
I0315 01:54:00.939651 2780312512 net.cpp:137] Memory required for data: 54739600
I0315 01:54:00.939674 2780312512 layer_factory.hpp:77] Creating layer relu1
I0315 01:54:00.939689 2780312512 net.cpp:84] Creating Layer relu1
I0315 01:54:00.939698 2780312512 net.cpp:406] relu1 <- ip1
I0315 01:54:00.939708 2780312512 net.cpp:367] relu1 -> ip1 (in-place)
I0315 01:54:00.940002 2780312512 net.cpp:122] Setting up relu1
I0315 01:54:00.940016 2780312512 net.cpp:129] Top shape: 100 500 (50000)
I0315 01:54:00.940026 2780312512 net.cpp:137] Memory required for data: 54939600
I0315 01:54:00.940033 2780312512 layer_factory.hpp:77] Creating layer ip2
I0315 01:54:00.940047 2780312512 net.cpp:84] Creating Layer ip2
I0315 01:54:00.940054 2780312512 net.cpp:406] ip2 <- ip1
I0315 01:54:00.940063 2780312512 net.cpp:380] ip2 -> ip2
I0315 01:54:00.940179 2780312512 net.cpp:122] Setting up ip2
I0315 01:54:00.940189 2780312512 net.cpp:129] Top shape: 100 16 (1600)
I0315 01:54:00.940197 2780312512 net.cpp:137] Memory required for data: 54946000
I0315 01:54:00.940207 2780312512 layer_factory.hpp:77] Creating layer ip2_ip2_0_split
I0315 01:54:00.940217 2780312512 net.cpp:84] Creating Layer ip2_ip2_0_split
I0315 01:54:00.940223 2780312512 net.cpp:406] ip2_ip2_0_split <- ip2
I0315 01:54:00.940232 2780312512 net.cpp:380] ip2_ip2_0_split -> ip2_ip2_0_split_0
I0315 01:54:00.940241 2780312512 net.cpp:380] ip2_ip2_0_split -> ip2_ip2_0_split_1
I0315 01:54:00.940253 2780312512 net.cpp:122] Setting up ip2_ip2_0_split
I0315 01:54:00.940291 2780312512 net.cpp:129] Top shape: 100 16 (1600)
I0315 01:54:00.940301 2780312512 net.cpp:129] Top shape: 100 16 (1600)
I0315 01:54:00.940309 2780312512 net.cpp:137] Memory required for data: 54958800
I0315 01:54:00.940315 2780312512 layer_factory.hpp:77] Creating layer accuracy
I0315 01:54:00.940325 2780312512 net.cpp:84] Creating Layer accuracy
I0315 01:54:00.940332 2780312512 net.cpp:406] accuracy <- ip2_ip2_0_split_0
I0315 01:54:00.940340 2780312512 net.cpp:406] accuracy <- label_mnist_1_split_0
I0315 01:54:00.940347 2780312512 net.cpp:380] accuracy -> accuracy
…
